…
First input sample (shape: torch.Size([30, 6])):
tensor([[… )
Corresponding target (shape: torch.Size([5, 1])):
tensor([[-1.0843],
        [-1.0835],
        [-1.0893],
        [-1.0798],
        [-1.0814]])
Inputs: torch.Size([256, 30, 6])
Targets: torch.Size([256, 5, 1])
torch.Size([256, 5, 1])
===============================================================================================
Layer (type:depth-idx)                        Output Shape              Param #
===============================================================================================
TimeSeriesTransformer                         [256, 5, 1]               --
├─Linear: 1-1                                 [256, 30, 256]            1,536
├─Time2VecTorch: 1-2                          [256, 30, 4]              8
├─Dropout: 1-3                                [256, 30, 260]            --
├─Linear: 1-4                                 [256, 5, 256]             (recursive)
├─Time2VecTorch: 1-5                          [256, 5, 4]               (recursive)
├─Dropout: 1-6                                [256, 5, 260]             --
├─TransformerDecoder: 1-7                     [256, 5, 260]             --
│    └─ModuleList: 2-1                        --                        --
│    │    └─TransformerDecoderLayer: 3-1      [256, 5, 260]             1,078,204
│    │    └─TransformerDecoderLayer: 3-2      [256, 5, 260]             1,078,204
├─LayerNorm: 1-8                              [256, 5, 260]             520
├─Linear: 1-9                                 [256, 5, 1]               261
===============================================================================================
Total params: 2,158,733
Trainable params: 2,158,733
Non-trainable params: 0
Total mult-adds (Units.MEGABYTES): 275.07
===============================================================================================
Input size (MB): 0.18
Forward/backward pass size (MB): 63.58
Params size (MB): 4.29
Estimated Total Size (MB): 68.06
…
